models/trajectron_5_8.pt (torch, 527902 bytes, 43 tensors)

weight_ih_l0 f4 [128, 6]
0	0x3e94cda8	0.29063153
1	0x3eb442b0	0.3520713
2	0xbeace4e4	-0.3376838
3	0xbe6b626c	-0.22986764
4	0xbd6d3e3f	-0.05792069
5	0xbd035f8b	-0.03207354
6	0xbd1cd9b9	-0.038293574
7	0xbe5ad0ed	-0.21368761
8	0xbe91ffad	-0.28515378
9	0x3da52735	0.08064119
10	0x3d21c871	0.039497796
11	0x3b3577b8	0.0027689766
12	0x3e1f2f58	0.15545404
13	0xbc57716e	-0.013149602
14	0xbeb40aec	-0.35164583
15	0xbe471ca6	-0.19444522
16	0xbe0efab1	-0.13962819
17	0x3e169f9c	0.14709324
18	0x3e2075fd	0.15670009
19	0x3db00e50	0.0859648
20	0x3e1b9954	0.15195209
21	0x3e5fe713	0.21865492
22	0x3d8c60db	0.06854411
23	0x3e5ca93b	0.21548931
24	0xbea2ebbd	-0.3182048
25	0xbe4b18e4	-0.19833714
26	0x3e18b1c8	0.14911568
27	0x3ee1e03e	0.44116396
28	0x3d0463f8	0.0323219
29	0xbf1a4486	-0.6026081
30	0x3dff705f	0.12472605
31	0x3e2f0a21	0.17093708
32	0x3e71dfb5	0.23620494
33	0xbe0e6c28	-0.13908446
34	0x3ea33cff	0.31882474
35	0xbe91bde4	-0.28465188
36	0xbeb33983	-0.35004815
37	0x3e24dd78	0.16100109
38	0x3e07b1ae	0.13251373
39	0xbe83b344	-0.25722706
40	0xbe4ab21b	-0.19794504
41	0xbee0d499	-0.439122
42	0xbdfb5ed5	-0.12273947
43	0x3e410ff9	0.1885375
44	0x3e6cbcaf	0.23118852
45	0xbe240987	-0.1601926
46	0xbc7eae85	-0.015544538
47	0x3d015f06	0.031584762
48	0x3e164e1c	0.14678234
49	0x3ea3682a	0.31915408
50	0x3f23b4e1	0.63947874
51	0xbf1e0901	-0.6173249
52	0x3e7607cf	0.24026416
53	0xbaee9708	-0.001820297
54	0xbe192341	-0.14954855
55	0xbea28ed6	-0.317496
56	0xbd9eace7	-0.07747822
57	0x3e9f03c0	0.3105755
58	0x3d126c74	0.03574796
59	0xbe0ce7ad	-0.13760252
60	0x3e394da7	0.18096028
61	0xbea52175	-0.32252088
62	0xbed00cc8	-0.4063475
63	0x3e6f7a0a	0.23386398
64	0xbd332704	-0.04373838
65	0xbcd78454	-0.026308216
66	0xbdc1a352	-0.09454979
67	0x3d0310d0	0.031998456
68	0xbdd36c91	-0.10323442
69	0x3db58017	0.08862322
70	0xbd9a2f11	-0.075285085
71	0x3c80e2e6	0.015733194
72	0xbc955b5d	-0.018232042
73	0xbcd5c38a	-0.026094217
74	0x3e1b82e8	0.15186656
75	0xbe009b60	-0.12559271
76	0x3ea37aef	0.31929728
77	0xbe2fbe55	-0.1716245
78	0xbe0ba8c7	-0.13638602
79	0x3c3ed58c	0.011647593
80	0x3ec4ee57	0.3846309
81	0x3e98099f	0.2969484
82	0x3ed7ac6f	0.42123744
83	0x3cb69027	0.022285534
84	0xbe03c6d8	-0.12868822
85	0xbdd3bd99	-0.10338897
86	0xbe59d102	-0.21271136
87	0x3db0dbfe	0.0863571
88	0x3d781813	0.060569834
89	0xbe271b72	-0.16319063
90	0xbe8aa553	-0.27079257
91	0xbdc619f9	-0.09672923
92	0x3ee94191	0.45557836
93	0x3eb24c33	0.3482376
94	0xbe1f7fd9	-0.15576114
95	0x3d235033	0.039871406
96	0x3e632083	0.22180371
97	0xbde59c7c	-0.11211488
98	0xbea824e2	-0.3284064
99	0x3f00caad	0.5030926
100	0xbe84251a	-0.25809556
101	0xbe8211a9	-0.254041
102	0x3d056ad0	0.032572567
103	0xbe0ea83f	-0.13931368
104	0x3d3567d6	0.04428848
105	0xbd92f16e	-0.07174955
106	0x3d8f5f1b	0.07000562
107	0x3d135ebd	0.03597902
108	0x3e306dbe	0.17229363
109	0xbe093a93	-0.1340125
110	0xbe50c4df	-0.203876
111	0x3ecf0ae0	0.40437984
112	0x3ea7d67f	0.32780835
113	0x3e546e12	0.20745113
114	0x3da6946d	0.08133779
115	0x3d87c181	0.06628705
116	0xbef525be	-0.47880358
117	0x3c73e5d6	0.01488634
118	0xbc3b0b07	-0.011416203
119	0x3eaba56a	0.33524638
120	0xbe5f58b8	-0.21811187
121	0xbd67a2d9	-0.056551788
122	0x3eab922c	0.33509958
123	0xbdd04a60	-0.10170436
124	0x3ea0e31a	0.31423265
125	0xbd649f69	-0.055816088
126	0xbccc8ee4	-0.02497048
127	0x3e94d60e	0.2906956
128	0x3df244fe	0.118295655
129	0xbda2d062	-0.07949902
130	0xbe4c16e9	-0.19930615
131	0x3e782208	0.24231732
132	0xbe1d74ad	-0.1537654
133	0xbebeece2	-0.37290102
134	0x3decbd3a	0.115595296
135	0x3e2779a4	0.16354996
136	0xbc83f246	-0.016106736
137	0x3d9f9cbb	0.07793566
138	0xbe11fb2c	-0.1425597
139	0x3e31ea62	0.17374566
140	0x3e6ff54f	0.23433422
141	0xbe95333c	-0.2914065
142	0x3d25714b	0.040391248
143	0x3d8df058	0.069306076
144	0xbd48dbd5	-0.049037773
145	0xbda00efe	-0.078153595
146	0xbe232448	-0.15931809
147	0xbd935fe2	-0.071960226
148	0xbf109bd5	-0.5648778
149	0xbd0c502b	-0.03425614
150	0xbe88cda4	-0.2671939
151	0xbe1e788c	-0.15475672
152	0x3e86d440	0.2633381
153	0x3eb36659	0.35039023
154	0x3f019dff	0.5063171
155	0x3e7ba7f5	0.2457579
156	0xbbb10761	-0.005402491
157	0x3df447cf	0.11927759
158	0xbf1e13a5	-0.61748725
159	0xbed7e64c	-0.4216789
160	0xbe210857	-0.15725838
161	0x3e5dc756	0.21658072
162	0xbe6521f8	-0.2237624
163	0x3de8ca46	0.113667056
164	0x3f18ca90	0.59684086
165	0x3f0f4108	0.55958605
166	0x3f0cb29b	0.5496003
167	0x3e8a2299	0.2697952
168	0x3e52ca05	0.20584877
169	0xbcbf50cc	-0.023353957
170	0xbed8f353	-0.42373142
171	0x3e389bee	0.18028232
172	0x3e38f9b9	0.18064012
173	0x3e118f96	0.1421493
174	0xbe6aa8aa	-0.22915903
175	0x3ccb43a3	0.024812525
176	0xbe0a59ce	-0.1351082
177	0xbdb6d145	-0.08926634
178	0x3d9f5a5c	0.077809066
179	0x3d1e1705	0.038596172
180	0xbe2be2b3	-0.16785698
181	0xbde50e65	-0.11184386
182	0x3eb5bed3	0.3549715
183	0x3e395617	0.18099247
184	0xbe5e2317	-0.21693073
185	0xbe87b462	-0.2650481
186	0xbe534c95	-0.20634682
187	0x3d2032d2	0.039110966
188	0x3e1111b6	0.14166912
189	0xbe164370	-0.14674163
190	0xbea27251	-0.31727841
191	0xbdad0e57	-0.08450001
192	0x3e5a0386	0.21290407
193	0x3e8eedca	0.27915794
194	0xbe717213	-0.23578672
195	0xbe5c1e7e	-0.21496007
196	0xbcdf3884	-0.027248628
197	0xbd270722	-0.040778287
198	0x3decf1f0	0.115695834
199	0xbc4b0b60	-0.012392849
200	0xbd9b5f66	-0.07586555
201	0xbc955319	-0.0182281
202	0x3e1f0935	0.15530856
203	0x3d518958	0.05115637
204	0xbd5e8111	-0.054322306
205	0xbd611fda	-0.054962017
206	0xbdae86d6	-0.08521812
207	0xbd319112	-0.04335124
208	0xbe639111	-0.22223307
209	0x3d12a908	0.035805732
210	0x3e22b49d	0.15889211
211	0x3daff657	0.085919075
212	0x3b3e7e7c	0.002906709
213	0xbdafbb7a	-0.0858068
214	0xbe410b27	-0.1885191
215	0xbf045b1f	-0.5170154
216	0x3c19ea55	0.009394248
217	0xbe863d14	-0.26218474
218	0x3dd36f60	0.103239775
219	0x3e8a4e01	0.27012637
220	0x3d348221	0.044069413
221	0x3ed411db	0.41419873
222	0xbc8e5eac	-0.017379127
223	0xbd290ffc	-0.04127501
224	0x3e4218ab	0.18954723
225	0xbe52ddf7	-0.20592485
226	0xbd918791	-0.07105935
227	0xbd5b5483	-0.053547394
228	0x3c58c3a9	0.013230243
229	0x3d3c1133	0.04591484
230	0x3da7e04c	0.08197078
231	0xbdbc825c	-0.092045516
232	0xbeb8d9bf	-0.36103627
233	0x3ea6eaea	0.326011
234	0x3cd1d8fb	0.02561616
235	0xbe7562ee	-0.2396352
236	0x3e1929bc	0.14957327
237	0xbda01918	-0.07817286
238	0xbe1d7d93	-0.15379934
239	0x3e08e7ce	0.13369676
240	0x3e7056cf	0.23470615
241	0x3ab40ba9	0.0013736385
242	0xbc12678a	-0.008935818
243	0xbe828f7a	-0.2550009
244	0xbf18f981	-0.5975571
245	0x3e935f0e	0.28783458
246	0xbe3c5a7a	-0.18393889
247	0xbdff1e57	-0.12456959
248	0x3e1e7b44	0.1547671
249	0x3e23e472	0.16005114
250	0x3e25d3f6	0.16194138
251	0xbe00b033	-0.12567215
252	0x3d8d1557	0.06888836
253	0xbe97c965	-0.2964584
254	0xbdcfbb1a	-0.10143109
255	0x3df84ebe	0.12124394

weight_hh_l0 f4 [128, 32]
0	0x3df2f45c	0.11863014
1	0xbc69657e	-0.014245389
2	0x3e3867b4	0.1800831
3	0x3e1576c5	0.14596088
4	0x3e7f8dce	0.24956438
5	0xbd90179b	-0.070357524
6	0xbd100125	-0.03515734
7	0xbd63f6e0	-0.05565536
8	0xbda7286c	-0.08162007
9	0x3e4c913d	0.19977279
10	0xbe101c3f	-0.14073275
11	0x3e603a6b	0.21897285
12	0xbe039cbb	-0.12852757
13	0x3e574851	0.2102368
14	0x3dd38320	0.103277445
15	0xbdd140a3	-0.102174066
16	0x3e7fe6e1	0.24990417
17	0xbe2b6355	-0.16737111
18	0xbd2d8f29	-0.042372856
19	0x3d2fee82	0.04295207
20	0xbe61a0aa	-0.22033945
21	0xbd8ad422	-0.067787424
22	0xbdcf77ac	-0.101302475
23	0xbe815c92	-0.25265938
24	0x3e5f8eb4	0.2183178
25	0x3de68fc2	0.112578884
26	0xbe177dc9	-0.14794077
27	0x3ee4ab78	0.4466207
28	0x3e8af776	0.27141923
29	0x3e2754db	0.16340964
30	0x3e4417dc	0.19149727
31	0xbe05a092	-0.13049534
32	0x3e7f5fb0	0.24938846
33	0xbde3ede9	-0.11129362
34	0x3e5d06e2	0.21584657
35	0xbd970669	-0.073742695
36	0x3eb4b836	0.35296792
37	0x3e2cc349	0.1687137
38	0x3d999759	0.074995704
39	0xbe07f22d	-0.13275976
40	0x3a543e15	0.0008096409
41	0x3b3e3d5a	0.0029028268
42	0xbe89d317	-0.2691886
43	0xbc60d81e	-0.013723401
44	0xbe514069	-0.20434727
45	0x3e27e37e	0.16395375
46	0x3dcb5f2b	0.09930261
47	0xbe8a65c5	-0.2703077
48	0x3e2ce5c1	0.16884519
49	0x3d705136	0.0586712
50	0xbe390f7b	-0.18072312
51	0x3dca1dec	0.098689884
52	0xbd4b8b6a	-0.049693502
53	0xbd0e0864	-0.03467597
54	0xbddb91fc	-0.10721204
55	0xbdfd8f4f	-0.123808496
56	0x3d181a6d	0.037134577
57	0x3dc61905	0.09672741
58	0xbe82fb92	-0.25582558
59	0x3d743e89	0.05962995
60	0x3d5939b2	0.05303354
61	0x3db40420	0.08789849
62	0x3e55b311	0.2086909
63	0xbe129277	-0.14313684
64	0x3db69d7a	0.08916755
65	0xbe068c9c	-0.13139576
66	0xbd4b1b5b	-0.049586635
67	0x3e08ea19	0.13370551
68	0x3ea532a0	0.32265186
69	0x3e4a66d5	0.1976579
70	0xbe8525b6	-0.26005334
71	0xbe0bbbbb	-0.13645832
72	0xbd4b35a7	-0.049611714
73	0x3e8c146b	0.27359328
74	0xbe8ec2fa	-0.2788313
75	0x3e4ec571	0.20192505
76	0xbd232c08	-0.039836913
77	0xbdb9dd9b	-0.09075471
78	0x3e2da0a4	0.16955811
79	0xbeacf6e0	-0.337821
80	0x3e23a547	0.15981017
81	0xbe2b18ef	-0.1670873
82	0x3d3e5ecc	0.046477124
83	0xbda65294	-0.08121219
84	0x3e1feace	0.15616915
85	0x3d90c2db	0.07068416
86	0x3ad4e02b	0.0016241124
87	0x3e6b9654	0.23006564
88	0x3e9fb4f8	0.31192756
89	0x3e7d5373	0.24738865
90	0x3d69ede4	0.057111636
91	0x3ebeef49	0.37291935
92	0x3e510b8c	0.20414561
93	0x3e7137b0	0.235564
94	0xbb70e04f	-0.0036754792
95	0xbc01fb34	-0.007933427
96	0xbe2ac4a8	-0.16676581
97	0x3da4fc35	0.08055917
98	0xbc279e40	-0.010230601
99	0x3e2f6bc9	0.1713096
100	0xbcc5670c	-0.024096988
101	0x3d24edfe	0.04026603
102	0xbe2cedd7	-0.16887604
103	0x3e1ba0ee	0.15198109
104	0xbd2302ba	-0.039797522
105	0x3e6da882	0.23208812
106	0xbe9d92b1	-0.3077598
107	0xbde42248	-0.11139351
108	0xbda348ce	-0.07972871
109	0xbe0195aa	-0.12654749
110	0xbd7be17c	-0.061494336
111	0xbe8c2fbf	-0.27380177
112	0x3d92c04a	0.071655825
113	0x3de6d9b7	0.112719946
114	0xbe20c8ae	-0.15701553
115	0xbdb11b38	-0.0864777
116	0xbda7360a	-0.08164604
117	0xbc63b5dc	-0.013898339
118	0xbcd5de0a	-0.026106853
119	0xbccdb766	-0.025111865
120	0x3e341097	0.17584454
121	0x3daec9d8	0.085345924
122	0xbe2c97c9	-0.16854776
123	0x3e174977	0.14774118
124	0x3ce965fc	0.028491013
125	0x3e68d387	0.22736941
126	0x3e703bf9	0.23460378
127	0xbdc4b1f0	-0.096042514
128	0xbef1e242	-0.47242934
129	0xbe8b1e2f	-0.27171466
130	0xbd2f4d77	-0.042798486
131	0xbe975382	-0.295559
132	0x3ec093c5	0.3761274
133	0x3e6caa5c	0.23111862
134	0xbeb90a0e	-0.36140484
135	0x3e1109b4	0.14163858
136	0x3ddac9a8	0.10682994
137	0x3cded454	0.027200855
138	0xbe1422dd	-0.14466424
139	0x3da34f67	0.07974129
140	0x3e6c9b3c	0.23106092
141	0x3e851847	0.25995085
142	0x3c2075a7	0.0097936755
143	0xbe9e7238	-0.30946517
144	0xbe0a3247	-0.13495742
145	0xbe8a0a4a	-0.26960975
146	0xbe22baac	-0.15891522
147	0xbdcbe548	-0.09955841
148	0x3e862f8d	0.26208153
149	0xbdfb0486	-0.12256722
150	0xbdae6628	-0.085155785
151	0x3e200676	0.15627465
152	0x3ea9e79b	0.33184513
153	0xbd833a57	-0.06407612
154	0x3df5268b	0.11970242
155	0xbbab4597	-0.0052268016
156	0x3d4f1c25	0.05056395
157	0x3dc3a157	0.095522575
158	0x3eb7fc8e	0.3593487
159	0xbeb512a0	-0.35365772
160	0x3e107c42	0.141099
161	0xbe407806	-0.18795785
162	0x3e19b11d	0.1500897
163	0xbdfe5edf	-0.12420439
164	0xba963c7b	-0.0011462116
165	0xbdf695c7	-0.120402865
166	0x3ddf71c3	0.1091037
167	0xbe8c59f9	-0.27412394
168	0xbe26f779	-0.16305341
169	0xbd9b24c6	-0.07575373
170	0x3e64e709	0.22353758
171	0xbe04fd17	-0.12987171
172	0xbeb073df	-0.34463403
173	0x3ce739ca	0.028225798
174	0xbe18448d	-0.148699
175	0xbe2ca5ce	-0.16860124
176	0xbd21d48e	-0.03950935
177	0x3e556bc6	0.20841894
178	0xbe2bc2ea	-0.16773573
179	0x3dd45997	0.103686504
180	0xbe0e7555	-0.13911946
181	0x3dcb0dd0	0.09914744
182	0x3d29e7ae	0.041480713
183	0xbe60b6d3	-0.21944742
184	0xbc898d97	-0.016791148
185	0xbe137bd8	-0.14402711
186	0x3daea69a	0.085278705
187	0x3e482f44	0.1954928
188	0xbcc98bed	-0.024602855
189	0xb9fd0f24	-0.000482672
190	0x3e0fc8eb	0.14041488
191	0x3e8c656a	0.27421123
192	0x3d74efd0	0.059799016
193	0xbd0185ca	-0.03162173
194	0xbe4e39ac	-0.20139188
195	0x3e0d52fa	0.13801184
196	0x3e3b3fae	0.1828601
197	0xbd7f536b	-0.062335413
198	0x3e302d35	0.17204745
199	0xbe80bc03	-0.25143442
200	0xbe75decd	-0.24010773
201	0x3dc165dd	0.09443257
202	0xbdce82e1	-0.10083557
203	0xbd4afbb7	-0.04955646
204	0xbda8849e	-0.0822842
205	0x3e9c2b45	0.30501762
206	0x3d142d0e	0.03617578
207	0xbd81a100	-0.063295364
208	0x3dae1c31	0.08501471
209	0xbe3d5f31	-0.18493344
210	0xbd9a6d2f	-0.07540356
211	0xbd5813a3	-0.052753102
212	0xbd1370d7	-0.035996284
213	0x3e849427	0.2589428
214	0x3de3d950	0.111254334
215	0xbdef4b64	-0.116843015
216	0xbd5a41a0	-0.05328524
217	0x3d3c08e4	0.045906916
218	0x3da69164	0.081332
219	0x3e37a928	0.17935622
220	0xbdfe9cf5	-0.12432281
221	0x3e227e93	0.15868597
222	0xbd335888	-0.0437856
223	0x3df762a1	0.12079359
224	0x3e222a27	0.15836392
225	0xbd9e0804	-0.077163726
226	0xbba695fa	-0.0050837966
227	0x3db00754	0.08595148
228	0x3c9a5cc0	0.018843055
229	0x3d92d89b	0.071702205
230	0x3e17ccb9	0.14824189
231	0xbdcc20df	-0.09967207
232	0xbe4e018a	-0.20117775
233	0xbcd525c2	-0.02601898
234	0xbe1af21c	-0.1513142
235	0xbdf33f04	-0.11877254
236	0x3dad756f	0.08469664
237	0x3bdcef57	0.0067423987
238	0x3dec4d02	0.115381256
239	0x3d4712a2	0.048601754
240	0x3e8107bc	0.25201213
241	0xbdebf205	-0.11520771
242	0xbe89ea33	-0.26936492
243	0x3da1542a	0.07877381
244	0xbe70b29d	-0.23505636
245	0x3d7b32da	0.061327793
246	0xbdf729c6	-0.120685145
247	0xbe898fcb	-0.26867518
248	0x3e1d2739	0.15346994
249	0x3e0cc765	0.13747938
250	0xbe0b43ca	-0.13600078
251	0x3e7c88f5	0.2466162
252	0x3e568b80	0.20951653
253	0x3e2e568e	0.17025205
254	0x3dc48f26	0.09597616
255	0x3e4de9b6	0.20108685

bias_ih_l0 f4 [128]
0	0x3d7f9902	0.06240178
1	0x3d94f0b5	0.07272474
2	0x3d5a95bd	0.053365458
3	0x3cffea31	0.0312396
4	0xbd733002	-0.059371956
5	0x3e74098e	0.2383177
6	0x3dc282f9	0.09497637
7	0xbda696e2	-0.08134247
8	0x3bf05282	0.0073340544
9	0x3e16d695	0.14730294
10	0x3ea277d2	0.3173204
11	0x3e325d1b	0.1741833
12	0x3e89c3f0	0.269073
13	0x3c85a3f6	0.016313534
14	0x3e7a274e	0.24429056
15	0x3d5adebb	0.05343507
16	0xbd38d510	-0.045125067
17	0x3e537621	0.20650531
18	0x3ccebbef	0.025236098
19	0x3e1ffce9	0.15623821
20	0x3e41f63a	0.18941584
21	0x3d122496	0.035679422
22	0x3e06d05e	0.13165423
23	0x3d04680e	0.032325797
24	0x3e5c0824	0.2148748
25	0x3dd39ef9	0.10333056
26	0x3bdbb205	0.006704571
27	0x3d8474a3	0.06467559
28	0x3ba4a9ec	0.005025139
29	0x3d8bb10c	0.068208784
30	0xbc825ba1	-0.015912833
31	0x3de6fb3f	0.1127839
32	0x3c96a9d8	0.018391535
33	0xbe7b0a36	-0.24515614
34	0xbe8715b1	-0.26383737
35	0x3dc08cf6	0.09401886
36	0xbe18a57d	-0.14906879
37	0xbe08f369	-0.13374104
38	0xbe44eca9	-0.19230904
39	0xbdf02a73	-0.117268465
40	0xbe34e890	-0.1766684
41	0xbd977df6	-0.07397072
42	0xbe109136	-0.14117894
43	0xbc7959d5	-0.0152191715
44	0xbe14ea68	-0.14542544
45	0x3e1b7b9f	0.15183876
46	0x3ccf076d	0.025272096
47	0xbdf49884	-0.119431525
48	0x3c4411ac	0.011967104
49	0xbb8d506f	-0.004312567
50	0xbdadb342	-0.08481456
51	0x3d81c054	0.06335512
52	0xbe85d5df	-0.26139733
53	0xbd01679b	-0.031592946
54	0xbceffb6c	-0.029294692
55	0xbd06f963	-0.032952677
56	0x3d1bb9cd	0.03801899
57	0x3de8ba18	0.113636196
58	0x3da3bef7	0.07995408
59	0x3deea93d	0.116533734
60	0xbd0a7158	-0.0337995
61	0xbe9c8377	-0.3056905
62	0xbe5ce3d7	-0.21571289
63	0xbe5ad774	-0.21371251
64	0x3e089ffe	0.13342282
65	0x3e07b802	0.13253787
66	0xbd791aee	-0.060816698
67	0x3ca327b4	0.019916393
68	0xbdda1f4a	-0.10650499
69	0xbc282a3a	-0.010263974
70	0x3db6601d	0.08905051
71	0xbcf7a8b0	-0.030231804
72	0x3ba416a2	0.005007581
73	0x3d828b90	0.06374276
74	0xbd9854ad	-0.074380256
75	0x3bc43a22	0.0059883753
76	0xbdb45327	-0.088049226
77	0xbcf29f3c	-0.029616944
78	0x3cd3677d	0.025806183
79	0xbdb7b6d8	-0.089704216
80	0xbdda9e63	-0.10674741
81	0xbe024546	-0.12721738
82	0x3ddead81	0.10872937
83	0xbc2a2134	-0.010383893
84	0x3d8d51a1	0.06900335
85	0x3d404521	0.046940926
86	0x3ddee226	0.10882978
87	0xbdfe38cb	-0.12413176
88	0x3e034fa0	0.12823343
89	0xbde1f244	-0.110325366
90	0x3d9554fd	0.07291601
91	0xbdfc60fd	-0.123231865
92	0xbdcaf509	-0.09910018
93	0x3e1032b4	0.14081842
94	0x3c9d9ce5	0.019239852
95	0xbd85ebb7	-0.065391
96	0x3e883a5e	0.2660703
97	0x3d3627dc	0.044471607
98	0x3ded521a	0.11587925
99	0x3d99e3b9	0.07514138
100	0x3dd99974	0.10624972
101	0x3e348997	0.17630611
102	0x3e0cb282	0.1373997
103	0xbd0dc3a5	-0.03461041
104	0xbdddd1c5	-0.10831026
105	0x3e68025b	0.22657149
106	0x3dbb55e2	0.0914724
107	0x3e010f71	0.12603547
108	0x3e5a85cd	0.21340103
109	0x3c10e42c	0.008843463
110	0x3e951822	0.29119974
111	0x3e631b3a	0.22178355
112	0x3d95ba1b	0.073108874
113	0x3dec4b89	0.11537845
114	0x3defcc62	0.11708905
115	0x3d1c3355	0.03813489
116	0x3e92e760	0.2869215
117	0x3d9948f8	0.07484621
118	0x3dc5b407	0.09653478
119	0x3db01f66	0.08599739
120	0x3d2df50d	0.042470027
121	0x3e198593	0.14992361
122	0x3e263c37	0.16233908
123	0x3bec2a95	0.0072072246
124	0x3e0e2e6f	0.138849
125	0x3e8c8490	0.27444887
126	0x3d39eef0	0.045393884
127	0x3db66f57	0.08907955

bias_hh_l0 f4 [128]
0	0x3c945f32	0.018111799
1	0x3dafc8df	0.08583235
2	0xbda4b5c7	-0.08042484
3	0x3e45591b	0.19272272
4	0x3dacdbd7	0.084403686
5	0xbbb6efc2	-0.0055827806
6	0xbbdaade6	-0.0066735623
7	0x3dc5100b	0.096222006
8	0x3dbd61cb	0.09247168
9	0x3e9fd880	0.31219864
10	0x3d794fc7	0.060867097
11	0x3d4a282d	0.04935472
12	0x3cfc247f	0.030779121
13	0x3e9f04ac	0.31058252
14	0x3e91d869	0.2848542
15	0x3e5afcf7	0.21385561
16	0xbe074323	-0.13209204
17	0x3e4bd7d2	0.19906548
18	0xbd904a51	-0.07045425
19	0x3de54bd7	0.11196106
20	0x3eac97aa	0.3370946
21	0x3e5d96f5	0.21639617
22	0x3e240625	0.16017969
23	0x3dc5e274	0.09662333
24	0x3deea9e9	0.116535015
25	0x3db4a32f	0.08820187
26	0x3da45f12	0.08025946
27	0xbcdc6a81	-0.026906254
28	0xbd9ce129	-0.076601334
29	0x3d711d52	0.058865853
30	0x3d5b929c	0.053606614
31	0x3e26e2a7	0.16297399
32	0xbd901cf1	-0.0703677
33	0xbe6052ed	-0.21906634
34	0xbcd635ed	-0.02614876
35	0xbde5a1ef	-0.11212527
36	0x3e231eb8	0.15929687
37	0x3cee67f2	0.0291023
38	0xbd5265b1	-0.05136651
39	0xbe863124	-0.26209366
40	0xbdd48c22	-0.10378291
41	0xbe055140	-0.13019276
42	0xbdfa5b68	-0.122244656
43	0xbd9c7c08	-0.076408446
44	0xbe17c3c7	-0.14820777
45	0xbce21520	-0.027597964
46	0x3e06602f	0.13122629
47	0xbd8df758	-0.06931943
48	0xbdf35da9	-0.11883099
49	0xbd93f0c0	-0.07223654
50	0xbd674493	-0.05646188
51	0xbdf185a3	-0.11793067
52	0xbdf09ea5	-0.11749009
53	0xbe470e08	-0.19438946
54	0xbe81356d	-0.25236073
55	0xbd799c7d	-0.060940254
56	0xbe298969	-0.16556324
57	0xbe47ac1b	-0.19499247
58	0xbe31bf9b	-0.17358248
59	0x3d64b97b	0.05584095
60	0xbd7e098b	-0.06202082
61	0xbd92fe9d	-0.0717747
62	0xbdab4533	-0.08362808
63	0x3db390d7	0.087678604
64	0xbe196ea6	-0.14983615
65	0xbe0b8138	-0.13623512
66	0x3ddfc4ea	0.1092623
67	0xbd124983	-0.035714637
68	0x3e19c264	0.1501556
69	0x3cb4b106	0.022057068
70	0xbdc6d828	-0.09709197
71	0x3c88780d	0.016658807
72	0x3e15c6c4	0.14626604
73	0xbcf4bd51	-0.02987543
74	0x3d5af150	0.05345279
75	0x3cbeb987	0.023281826
76	0x3dbdc6b2	0.09266414
77	0x3d16d87d	0.036827553
78	0xbd5493fd	-0.051898945
79	0x3d67a588	0.056554347
80	0xbc623322	-0.013806136
81	0x3debdfc7	0.115172915
82	0x3d0bfc42	0.03417612
83	0xbe0c40e3	-0.13696627
84	0xbdb42a7e	-0.08797167
85	0xbc5d6295	-0.013512273
86	0xbe09ffbe	-0.13476464
87	0x3dfdd781	0.1239462
88	0xbde1d1de	-0.11026357
89	0xbb9984e3	-0.004685031
90	0x3d9b6893	0.07588305
91	0xbc095ff8	-0.008384697
92	0xbdb37f7e	-0.087645516
93	0xbe0d2231	-0.13782574
94	0xbbadf8c2	-0.0053091953
95	0x3d1e2022	0.038604863
96	0x3e1aa7bb	0.15103047
97	0x3e3716a7	0.17879735
98	0xbd24bed0	-0.040221035
99	0x3e9adb32	0.30245358
100	0x3e51c7d8	0.2048639
101	0x3da3372c	0.079695076
102	0x3eac0572	0.33597904
103	0x3e8d4dab	0.27598318
104	0xbe2634e1	-0.16231109
105	0x3e7ee569	0.248922
106	0x3eaa5ce1	0.33273986
107	0x3e4fcc4f	0.20292781
108	0x3e66f9db	0.2255625
109	0x3e4edfc7	0.20202552
110	0x3e581e85	0.21105392
111	0x3e6b28d1	0.22964789
112	0x3dbb997c	0.09160134
113	0xbcaf6b0a	-0.021413345
114	0x3e638474	0.22218496
115	0xbdaece64	-0.0853546
116	0x3e7ff83d	0.24997039
117	0x3e88296e	0.26594108
118	0x3e7e4522	0.2483106
119	0x3e5fd555	0.21858723
120	0x3e6bd388	0.23029912
121	0x3e0095ea	0.12557188
122	0x3e5b6556	0.21425375
123	0x3c5bb8a4	0.013410721
124	0x3c1bc964	0.0095084645
125	0x3e89ae22	0.26890665
126	0x3d944cce	0.07241212
127	0x3e94630a	0.2898181

weight_ih_l0 f4 [128, 2]
0	0xbe13cad4	-0.14432842
1	0x3e7d2437	0.24720846
2	0xbde8a0ff	-0.113588326
3	0x3e49008b	0.19629113
4	0xbc3923bf	-0.011300026
5	0xbe4b99b2	-0.19882849
6	0xbd35163a	-0.04421065
7	0x3cc6c0fc	0.024261944
8	0x3ca408ff	0.02002382
9	0xbdb86fcb	-0.09005698
10	0x3dab18bd	0.08354328
11	0x3e471d1c	0.19444698
12	0xbd9d1a9c	-0.07671091
13	0xbdc6234b	-0.096747
14	0xbd17e581	-0.037084106
15	0xbe2216fa	-0.15829077
16	0xbe389181	-0.18024255
17	0xbebf0d78	-0.37314963
18	0x3ca1971b	0.019725373
19	0x3e459d9a	0.19298401
20	0xbd37e25c	-0.044893607
21	0x3de82ca2	0.11336638
22	0xbda59b2b	-0.080862366
23	0x3d47bc30	0.048763454
24	0xbecb5ef7	-0.3972089
25	0xbe01141c	-0.12605327
26	0xbc64e173	-0.013969767
27	0x3c743df5	0.01490735
28	0xbe3d407d	-0.18481632
29	0xbd481890	-0.04885155
30	0xbe7fb99b	-0.24973147
31	0x3e92b37f	0.2865257
32	0xbdf1b78f	-0.11802589
33	0x3e894afc	0.2681502
34	0x3dd3f6a1	0.10349775
35	0x3e7fa4e9	0.24965252
36	0xbda56653	-0.080761574
37	0xbc8ed319	-0.017434644
38	0xbdb70adb	-0.089376174
39	0x3df5ce68	0.120022595
40	0x3db35e82	0.0875826
41	0xbe3caeb5	-0.1842602
42	0xbbc085fc	-0.005875347
43	0x3eaa6ebd	0.33287612
44	0x3d34fbfa	0.044185616
45	0x3e2dccef	0.16972707
46	0xbe31f89f	-0.17379998
47	0xbc61fa60	-0.013792604
48	0xbd37ee83	-0.044905197
49	0x3d9c51bb	0.07632776
50	0xbcc13892	-0.023586545
51	0xbd6d3c22	-0.057918675
52	0x3ec669c1	0.3875256
53	0x3e909034	0.28235018
54	0xbe31c746	-0.17361173
55	0x3e87a5d1	0.26493695
56	0xbcc8c1e0	-0.02450651
57	0x3e7d7ac5	0.24753864
58	0x3ec6d5ed	0.38835087
59	0x3eb0e69e	0.34550947
60	0x3ea846ab	0.32866415
61	0xbd448c10	-0.047985137
62	0xbe633644	-0.2218867
63	0xbd49f23c	-0.04930328
64	0xbdc6e870	-0.09712303
65	0xbbf14297	-0.0073626745
66	0xbe257d13	-0.16160993
67	0xbec1ce2d	-0.37852612
68	0xbe631aeb	-0.22178237
69	0xbe91c922	-0.28473765
70	0x3ebf0619	0.3730934
71	0x3e52cfbe	0.2058706
72	0x3ed2e9e3	0.41194066
73	0xbd5cc68b	-0.053900283
74	0x3d492d8d	0.049115706
75	0x3ca6706b	0.020317277
76	0xbdd794b6	-0.10526411
77	0x3e1b6bd6	0.15177855
78	0x3e7101ce	0.23535845
79	0x3e2b4959	0.16727199
80	0xbee4d542	-0.44693953
81	0xbede9798	-0.43475032
82	0x3d5d54aa	0.05403582
83	0x3e17e728	0.14834273
84	0xbcd03959	-0.02541797
85	0xbe1845ac	-0.14870328
86	0xbe4b53fd	-0.19856258
87	0x3e429319	0.19001426
88	0xbf147414	-0.5798962
89	0xbe2cbf8f	-0.16869949
90	0x3d7cff19	0.061766718
91	0x3d3e9dd1	0.046537224
92	0xbdbf3220	-0.093357325
93	0xbda4ab9d	-0.08040545
94	0x3e1438e6	0.1447483
95	0x3d9f8605	0.07789234
96	0x3d95de88	0.07317835
97	0x3e28f6e6	0.16500434
98	0xbce3b64d	-0.027796889
99	0xbdd9af07	-0.10629087
100	0xbe5e9e4f	-0.21740077
101	0xbbb75ae3	-0.0055955513
102	0xbd8ee2eb	-0.06976875
103	0x3d8f28c1	0.06990195
104	0xbeb5ee39	-0.35533312
105	0xbe85ec90	-0.26157045
106	0x3e60a8ee	0.21939442
107	0x3da56078	0.080750406
108	0x3dea9378	0.11453909
109	0xbc99cd3a	-0.018774617
110	0xbe9974e8	-0.29972005
111	0xbedccdb9	-0.43125704
112	0xbed5ccad	-0.41757718
113	0xbe24f7af	-0.16110109
114	0x3d987f74	0.07446185
115	0xbcb2ec45	-0.021841178
116	0x3e1b73f9	0.15180959
117	0x3dee1616	0.11625306
118	0x3df900a9	0.12158329
119	0x3dc55420	0.09635186
120	0xbcaf13bf	-0.02137172
121	0xbe3356b3	-0.17513542
122	0xbe3b64db	-0.18300192
123	0xbcd4c05d	-0.025970632
124	0x3eb65465	0.35611263
125	0x3c4f56bf	0.012654959
126	0x3de88696	0.11353795
127	0x3e409723	0.18807654
128	0x3e52085c	0.20511001
129	0x3e60b5c8	0.21944344
130	0xbe78a2fd	-0.24280925
131	0xbed6b2d9	-0.41933325
132	0xbe6d6202	-0.23181918
133	0xbe98483c	-0.2974261
134	0xbe72425f	-0.23658131
135	0xbea93861	-0.33050826
136	0xbe6c0449	-0.2304851
137	0x3e22aa13	0.1588519
138	0x3e8f7ff6	0.28027314
139	0xbe91170a	-0.2833789
140	0xbdcaf39b	-0.09909745
141	0xbea310d5	-0.3184878
142	0x3e9a7b3d	0.30172148
143	0xbdb17369	-0.08664591
144	0x3ed11403	0.4083558
145	0x3dbdf561	0.09275318
146	0xbdffa6ab	-0.12482961
147	0x3e9e282e	0.3089003
148	0x3efcfcf7	0.49411747
149	0x3efa5375	0.48891798
150	0xbe83df4c	-0.257563
151	0x3e90af54	0.28258765
152	0xbebfb999	-0.37446287
153	0xbe3a1835	-0.18173297
154	0x3f085da2	0.5326787
155	0x3e8a2dad	0.26987973
156	0xbe7143de	-0.23561046
157	0xbea9a8d0	-0.33136606
158	0xbeada358	-0.33913684
159	0x3e8f9ad7	0.2804782
160	0x3e15f1d1	0.14643027
161	0xbdb69683	-0.089154266
162	0xbe96e6d9	-0.29472998
163	0x3e52faf7	0.20603548
164	0xbba3ec6f	-0.0050025503
165	0x3e837ad2	0.25679642
166	0x3e97cebe	0.2964992
167	0x3e26f8eb	0.16305892
168	0xbe8a6769	-0.2703202
169	0xbe32a319	-0.1744503
170	0xbed1febe	-0.41014665
171	0x3c60a0c1	0.013710202
172	0xbe119428	-0.14216673
173	0xbebf4ac1	-0.3736172
174	0x3e1e6b41	0.15470602
175	0x3cb66c69	0.02226849
176	0x3ec15885	0.37762848
177	0x3e50776d	0.20358057
178	0x3c1249f1	0.008928762
179	0x3e9dce44	0.3082143
180	0xbef01c51	-0.46896604
181	0x3cc11b16	0.023572486
182	0x3ebbe26c	0.36696184
183	0xbdce9cfa	-0.10088535
184	0x3edc7368	0.43056798
185	0x3e93fbcf	0.28903052
186	0x3ebefa49	0.37300327
187	0x3ea240b8	0.3169
188	0x3eae23ca	0.3401168
189	0x3d097a97	0.033564176
190	0xbeab0d59	-0.3340862
191	0xbe9a6638	-0.30156112
192	0xbe99baf8	-0.30025458
193	0x3bbff157	0.0058576274
194	0x3d04ace2	0.032391436
195	0x3d603e00	0.054746628
196	0xbdd4a5ab	-0.10383161
197	0xbe75b1f6	-0.23993668
198	0x3e825236	0.25453347
199	0x3e07c19b	0.13257448
200	0x3bc2759a	0.0059344294
201	0xbe47ef03	-0.1952477
202	0xbd569409	-0.05238727
203	0x3dbc47ef	0.09193408
204	0xbbb6759f	-0.0055682207
205	0xbe8505c0	-0.2598095
206	0xbd8483cc	-0.06470451
207	0xbe06ff83	-0.13183407
208	0xbed83032	-0.4222427
209	0xbe127563	-0.14302592
210	0xbe04a425	-0.12953241
211	0xbd4cd333	-0.050006103
212	0x3d637983	0.055535804
213	0x3cf1c99b	0.029515078
214	0x3d30dc7d	0.043179024
215	0x3d111217	0.035417642
216	0xbe2207f8	-0.15823352
217	0xbe33e884	-0.17569166
218	0x3e8ccb05	0.27498642
219	0x3e9fd85a	0.3121975
220	0xbe33fa25	-0.17575891
221	0xbdcc601e	-0.099792704
222	0xbe59a52e	-0.21254417
223	0x3e84e0eb	0.2595285
224	0xbce2b61c	-0.027674727
225	0x3e2155d6	0.157554
226	0xbe21b671	-0.15792252
227	0xbdb39c99	-0.08770103
228	0xbe920de7	-0.28526232
229	0xbe7a60aa	-0.24450937
230	0x3e3b4a36	0.18290028
231	0x3e70de1f	0.23522232
232	0x3b85ba8f	0.0040810774
233	0xbdff95f5	-0.12479774
234	0xbe7b2748	-0.24526703
235	0x3ea00577	0.3125417
236	0x3e3cde3f	0.18444155
237	0x3d8ccb09	0.068746634
238	0xbe854b46	-0.26033992
239	0xbe9b9483	-0.30386743
240	0x3e1f09df	0.1553111
241	0x3e3c2357	0.18372856
242	0xbd248672	-0.04016728
243	0xbe03a5ca	-0.12856212
244	0x3e9c3c87	0.3051493
245	0xbd06e9b5	-0.032937724
246	0x3e13684f	0.1439526
247	0x3ed8f9f2	0.42378193
248	0xbe0eef79	-0.13958539
249	0x3b57737e	0.0032875235
250	0x3dff23ad	0.124579765
251	0x3e43bef7	0.19115816
252	0x3e77d2e5	0.24201544
253	0x3d8de4c0	0.06928396
254	0xbcca3d7a	-0.024687517
255	0xbdf5deaa	-0.120053604

weight_hh_l0 f4 [128, 32]
0	0x3c385b56	0.011252245
1	0x3ed985b0	0.42484808
2	0x3d6fde83	0.058561813
3	0x3e48b91b	0.19601862
4	0x3e060a86	0.13089952
5	0xbd0bdd48	-0.034146577
6	0xbbd9611d	-0.0066338913
7	0x3df55629	0.11979324
8	0xbeb195be	-0.34684557
9	0x3db3a90c	0.087724775
10	0xbd9ea911	-0.077470906
11	0x3e92a7cc	0.28643644
12	0x3f002ad1	0.5006533
13	0x3ec407f3	0.38287315
14	0xbd486f7f	-0.048934456
15	0xbc3d79a1	-0.011564643
16	0xbd409b54	-0.047023132
17	0x3e6b8d78	0.23003185
18	0x3d06cf0e	0.032912306
19	0xbcdf33dd	-0.02724641
20	0x3e6e2c69	0.23259129
21	0x3aeed617	0.0018221763
22	0xbc3418d9	-0.010992252
23	0xbccf58db	-0.025310924
24	0xbf23e2eb	-0.64018124
25	0x3ec77953	0.3895975
26	0x3e1271ca	0.1430122
27	0x3eb5f1c0	0.35536003
28	0xbe589438	-0.21150291
29	0xbf696288	-0.9116597
30	0xbdd5e5e4	-0.10444239
31	0xbe414bb8	-0.1887654
32	0x3e53c076	0.20678887
33	0xbe07a513	-0.13246565
34	0xbdf435e8	-0.11924344
35	0xbe640bec	-0.22270173
36	0x3e335e5a	0.17516461
37	0xbbc47072	-0.00599485
38	0xbe93d58e	-0.28873867
39	0x3d026cad	0.031841923
40	0x3d89eb64	0.0673435
41	0x3ea2e356	0.3181407
42	0x3e931392	0.28725868
43	0x3d55f283	0.05223323
44	0xbe1bf8d7	-0.15231644
45	0x3f6573ae	0.8962964
46	0x3d9ef575	0.07761661
47	0xbdf9f921	-0.12205721
48	0xbd937abe	-0.072011456
49	0xbd5164c4	-0.05112149
50	0x3e90c4da	0.28275186
51	0x3eaa5a60	0.33272076
52	0x3cd1f597	0.025629802
53	0xbe8d04f6	-0.27542847
54	0xbe004cce	-0.12529299
55	0x3e161e1f	0.14659928
56	0x3d8ae8d7	0.06782692
57	0x3cf6a501	0.030107977
58	0xbe31fd01	-0.1738167
59	0xbcf59734	-0.029979326
60	0x3babad49	0.005239163
61	0xbdac672a	-0.084181145
62	0x3d845ca5	0.06462983
63	0xbf0d954f	-0.5530595
64	0xbb94825e	-0.0045321425
65	0x3e78e043	0.24304299
66	0x3e1c6c22	0.15275624
67	0xbce594d5	-0.02802507
68	0xbe60733b	-0.21918957
69	0xbe0070c2	-0.12543014
70	0x3b93d079	0.004510936
71	0x3da6b3b2	0.08139743
72	0xbe5ecb44	-0.21757227
73	0xbde253e2	-0.110511556
74	0xbe762db0	-0.24040866
75	0x3d22bbfa	0.03973005
76	0x3d0a4909	0.033761058
77	0x3ec7d811	0.39032033
78	0x3e0fb11c	0.14032406
79	0xbe07dea6	-0.13268527
80	0x3d340c95	0.04395731
81	0x3db6832c	0.08911738
82	0xbe657258	-0.224069
83	0xbeb1d86a	-0.34735423
84	0x3d478009	0.04870609
85	0xbe32d734	-0.17464906
86	0xbdaff22d	-0.08591113
87	0x3e634d4a	0.22197452
88	0xbe8c8340	-0.27443886
89	0xbcc1332d	-0.023583973
90	0x3d8ebe9a	0.06969948
91	0xbd8210bb	-0.06350847
92	0xbe8526ed	-0.2600626
93	0xbeb5af5d	-0.35485354
94	0x3e24e4d6	0.16102919
95	0xbee71fba	-0.45141393
96	0x3de916d7	0.113813095
97	0x3e209fe7	0.15685998
98	0x3ddf30ec	0.10898003
99	0xbe4d8008	-0.20068371
100	0x3e147964	0.14499432
101	0x3d8f1d73	0.06988039
102	0x3d128440	0.035770655
103	0x3e6af92f	0.22946618
104	0x3e8af37b	0.27138886
105	0x3e9cc2b5	0.306173
106	0x3ce939b9	0.028469907
107	0xbd8e714d	-0.06955204
108	0x3e498f6e	0.1968362
109	0xbad1c9d8	-0.0016005589
110	0xba8b0a55	-0.0010607938
111	0xbdff9d62	-0.1248119
112	0xbe21d03d	-0.15802093
113	0xbe108900	-0.14114761
114	0xbd03b1c5	-0.032151956
115	0x3bf60216	0.007507573
116	0xbcf722bf	-0.030167935
117	0x3db8ddfe	0.09026717
118	0x3aed869a	0.001812178
119	0xbdc89138	-0.09793323
120	0xbdb97eca	-0.09057386
121	0x3eb6b839	0.35687426
122	0x3d5617f7	0.05226895
123	0x3d07f176	0.03318926
124	0xbe2bea34	-0.1678856
125	0xbdfcda61	-0.1234634
126	0x3e5116f4	0.20418912
127	0xbe9efeb2	-0.31053692
128	0xbdb87455	-0.090065636
129	0x3e80f1b0	0.25184393
130	0x3e150805	0.1455384
131	0x3da36498	0.07978171
132	0xbc2c860f	-0.010530009
133	0x3e9bc329	0.30422333
134	0x3e579c83	0.21055798
135	0x3e0c61ed	0.1370923
136	0x3d2f0209	0.04272655
137	0x3d9d39d9	0.07677049
138	0xbe684d99	-0.22685851
139	0xbdad6146	-0.08465819
140	0x3dce66df	0.10078215
141	0x3d9405b2	0.07227649
142	0x3e28e5c9	0.16493906
143	0xbd594816	-0.053047262
144	0xbdfb490e	-0.122697935
145	0xbd20d7d5	-0.039268333
146	0xbd4bd869	-0.04976693
147	0xbda7556b	-0.08170589
148	0x3e9e14f6	0.30875367
149	0x3ca9ed40	0.020743012
150	0x3e7520c3	0.23938279
151	0x3d3ae0bb	0.045624476
152	0xbe41c12d	-0.18921347
153	0x3dcf9ebf	0.101377
154	0xbe5d39aa	-0.21604028
155	0x3e9171d7	0.28407165
156	0xbdb47bc7	-0.08812671
157	0x3deb4eda	0.11489649
158	0x3e814fc6	0.25256175
159	0x3d2448ec	0.040108606
160	0xbc212d51	-0.009837464
161	0xbe1258aa	-0.14291635
162	0xbe439412	-0.19099453
163	0xbe8b519b	-0.27210698
164	0xbdc39b6e	-0.0955113
165	0x3e5e03e3	0.2168117
166	0xbe84c1a4	-0.25928986
167	0x3e5bf6f6	0.21480927
168	0x3e7a786b	0.24459998
169	0xbd393d87	-0.045224693
170	0xbd2334c1	-0.039845232
171	0x3e75c473	0.2400072
172	0x3cf4431b	0.029817155
173	0x3dff2adc	0.12459347
174	0x3d9d6a05	0.07686237
175	0xbe4f2c4a	-0.20231739
176	0xbe7e267a	-0.24819365
177	0x3c45f798	0.012082957
178	0xbe1ea751	-0.15493514
179	0x3e495078	0.19659603
180	0xbe345d9f	-0.17613839
181	0xbdf57a15	-0.11986176
182	0xbe307427	-0.17231809
183	0x3e21ff8b	0.15820138
184	0x3e257f42	0.16161826
185	0x3e144569	0.14479603
186	0x3e2104ab	0.15724437
187	0x3e5550ec	0.2083165
188	0x3b06b7ae	0.002055626
189	0xbe726106	-0.23669824
190	0x3e992a22	0.29914957
191	0xbe34f11b	-0.176701
192	0x3e12cec6	0.1433669
193	0x3eaaf12c	0.33387125
194	0x3ddd3bdd	0.10802434
195	0xbe242707	-0.16030513
196	0x3ecba933	0.39777526
197	0xbdf22181	-0.118227966
198	0xbe6c5f5b	-0.2308325
199	0x3e897754	0.26848853
200	0xbdc52423	-0.09626033
201	0xbdae1351	-0.08499778
202	0xbd1b2d18	-0.0378848
203	0x3dc1cc7f	0.09462833
204	0x3e6ee41b	0.23329203
205	0x3ebb6f9e	0.36608595
206	0xbd8c451e	-0.068491206
207	0xbe1ce4c5	-0.15321644
208	0xbda358c5	-0.07975916
209	0xbdc19f50	-0.094542146
210	0x3d07b266	0.03312912
211	0xbd24ed75	-0.04026552
212	0x3e6913ca	0.22761455
213	0x3decf4dc	0.11570141
214	0x3d1dbb99	0.038508985
215	0x3e3e0aea	0.18558851
216	0xbe449acd	-0.19199677
217	0x3f148f1f	0.58030885
218	0xbe2d4ebf	-0.1692457
219	0x3e716938	0.23575294
220	0xbc61287f	-0.013742565
221	0xbecc4fbb	-0.3990458
222	0x3c1ab3ac	0.009442251
223	0xbe4be939	-0.19913186
224	0xbc80791c	-0.01568275
225	0x3e8a5d44	0.2702428
226	0x3e3db7a5	0.18527086
227	0x3e2d0b6c	0.16898888
228	0x3e015457	0.1262983
229	0xbe99a9f8	-0.30012488
230	0xbd41fd3c	-0.047360644
231	0xbba26e3f	-0.00495699
232	0xbe94e11e	-0.29078
233	0xbdc854a1	-0.09781767
234	0xbee4b7d0	-0.44671488
235	0x3e81910d	0.25305977
236	0x3f2801c4	0.65627694
237	0xbf1e6ddf	-0.618864
238	0x3db2ac64	0.08724287
239	0x3ddb1ef3	0.106992625
240	0x3de7db0e	0.11321078
241	0x3e033da7	0.12816487
242	0xbe86abc6	-0.26302928
243	0xbdcc62ea	-0.09979804
244	0x3e458650	0.19289517
245	0x3d36a8eb	0.044594686
246	0x3d3c86de	0.046027057
247	0xbddaf378	-0.10690969
248	0xbde2024d	-0.11035595
249	0xbdaa4541	-0.083139904
250	0x3f0af51d	0.54280263
251	0xbcc75e20	-0.024336874
252	0xbe6d765f	-0.23189686
253	0x3e38b477	0.18037592
254	0xbdb376e2	-0.087629095
255	0x3e6cb802	0.23117068

bias_ih_l0 f4 [128]
0	0xbdbd9636	-0.09257166
1	0xbcee01a5	-0.029053519
2	0x3e0c52aa	0.13703409
3	0x3e080e4e	0.13286707
4	0x3d1592bd	0.036516894
5	0x3e07ade9	0.13249935
6	0x3e51c2fe	0.2048454
7	0xbdca4d53	-0.0987803
8	0x3da5f96b	0.08104213
9	0x3e101059	0.14068736
10	0x3ce2702f	0.027641384
11	0xbde109d4	-0.10988203
12	0x3d448cb1	0.047985736
13	0x3ea24327	0.31691858
14	0xbe0f880f	-0.14016746
15	0x3d74640e	0.059665732
16	0xbbe1bfb9	-0.00688931
17	0x3e23dd07	0.16002284
18	0x3e77ab07	0.24186336
19	0x3e16108a	0.14654747
20	0x3e9087c4	0.2822858
21	0xbd1aceeb	-0.03779499
22	0xbd7bbf29	-0.0614616
23	0xbdd8838e	-0.10571967
24	0x3c61cf5c	0.0137823485
25	0x3b3f837d	0.002922266
26	0x3df8c343	0.12146618
27	0x3db3e1a5	0.08783273
28	0x3e167963	0.14694743
29	0x3ddfdf42	0.10931255
30	0x3e53a52c	0.20668477
31	0x3e1f47d5	0.15554745
32	0x3e05d815	0.1307071
33	0xbe263d0f	-0.1623423
34	0xbde45607	-0.11149221
35	0xbe01a6e5	-0.12661321
36	0x3ddce412	0.107856885
37	0x3d9b6850	0.075882554
38	0xbc9b2097	-0.018936438
39	0x3e2d134f	0.16901897
40	0x3e83b41e	0.25723356
41	0x3e84af06	0.25914782
42	0x3de110d5	0.109895386
43	0x3e6e7cfa	0.23289862
44	0xbe24e398	-0.16102445
45	0x3e7943f4	0.24342328
46	0x3bbd8fad	0.0057849498
47	0xbd221c9f	-0.039578076
48	0xbddd1004	-0.1079407
49	0x3e5756c9	0.210292
50	0x3e6ceccf	0.2313721
51	0x3ebea8c0	0.3723812
52	0x3e38e459	0.18055858
53	0x3e000519	0.12501945
54	0xbd56fd02	-0.05248738
55	0x3dfe6afd	0.1242275
56	0xbd44ffba	-0.048095442
57	0x3e2ed9f5	0.17075332
58	0x3d59af37	0.053145614
59	0x3e586570	0.21132445
60	0xbe2797e5	-0.16366537
61	0x3d6501f7	0.055910077
62	0xbce1e6fa	-0.027575959
63	0x3d5d28b2	0.05399389
64	0xbd64e2d9	-0.0558804
65	0x3e6f418f	0.23364852
66	0x3e5cf8a5	0.21579225
67	0xbe0ea5d3	-0.13930444
68	0x3b3fea4b	0.0029283937
69	0x3d1228e4	0.035683528
70	0x3d71c34b	0.059024137
71	0x3e9a1283	0.30092248
72	0x3d9db6a8	0.077008545
73	0xbbb87e23	-0.005630271
74	0x3d898ad2	0.06715931
75	0x3d0b6f21	0.034041528
76	0x3c934d51	0.017981203
77	0x3e2291f0	0.15875983
78	0x3dc86b43	0.097860835
79	0xbe65848a	-0.22413841
80	0xbdd8fd25	-0.105951585
81	0xbe467ced	-0.19383593
82	0xbcb4a94e	-0.022053387
83	0x3d814390	0.06311715
84	0x3e36993c	0.17831892
85	0xbdfd19c3	-0.12358429
86	0xbd80d100	-0.062898636
87	0x3e18163e	0.14852235
88	0xbe2a6763	-0.16641001
89	0x3c8c0318	0.017091319
90	0x3edf716a	0.43641216
91	0x3d074676	0.03302618
92	0xbe2eac9f	-0.17058037
93	0xbea998c0	-0.33124352
94	0xbd5315bc	-0.0515344
95	0xbeb1d25e	-0.3473081
96	0xbcb4e08a	-0.022079725
97	0x3e61b4d5	0.22041638
98	0x3e7967c3	0.24355988
99	0x3e374bdc	0.17900032
100	0x3e518803	0.2046204
101	0x3e690f23	0.2275968
102	0x3e483fca	0.19555584
103	0x3db2448e	0.08704482
104	0x3def90d4	0.11697546
105	0x3e8e2efc	0.2777022
106	0x3e136a9d	0.14396138
107	0xbd9cf11e	-0.07663177
108	0xbdaaeb58	-0.083456695
109	0x3ec2fb61	0.38082412
110	0x3d96c301	0.07361413
111	0x3d90e22a	0.07074387
112	0x3d0773cb	0.033069413
113	0xbd0676de	-0.032828204
114	0x3e4e4a43	0.20145516
115	0x3ea4489e	0.32086653
116	0x3db82ad6	0.08992545
117	0x3dd4add4	0.103847176
118	0x3da02e43	0.07821324
119	0xbdf463e0	-0.11933112
120	0x3e6c2a54	0.23063022
121	0x3e079a8c	0.13242549
122	0x3eadfa2d	0.3397993
123	0xbcb74aec	-0.022374593
124	0xbd79f99d	-0.061029065
125	0x3d250edb	0.04029737
126	0x3e330026	0.17480525
127	0x3e19ea24	0.15030724

bias_hh_l0 f4 [128]
0	0x3e0bbe4e	0.13646814
1	0x3e6bf70a	0.23043457
2	0x3d89ab8c	0.06722173
3	0xbd13b859	-0.03606448
4	0x3e05af34	0.13055116
5	0x3e6176e3	0.22018008
6	0xbd2b19fa	-0.04177282
7	0x3badd08b	0.0053044013
8	0x3e238d69	0.15971912
9	0x3e59ed0c	0.21281832
10	0x3e6e487f	0.23269843
11	0x3dca7d8c	0.098872274
12	0x3d46c48b	0.04852728
13	0x3ea70438	0.32620406
14	0x3db682af	0.08911645
15	0x3de2cc2c	0.11074099
16	0xbd6d4e8d	-0.05793624
17	0x3da5af0e	0.0809003
18	0x3e1b42a0	0.15162134
19	0x3dd00bea	0.101585224
20	0x3e931f97	0.2873504
21	0x3d92b79d	0.07163928
22	0x3e6e8347	0.23292266
23	0xbe377f22	-0.17919591
24	0xbdbee7b1	-0.093215354
25	0xbda452b6	-0.08023588
26	0x3daf87c5	0.08570818
27	0xbc08acda	-0.008341992
28	0x3e30efd0	0.17278981
29	0x3e08b9cb	0.13352124
30	0x3d86e674	0.06586924
31	0x3e3cf273	0.18451862
32	0xbb6569b8	-0.003500564
33	0x3d70520d	0.058672
34	0x3c4bb27a	0.012432689
35	0xbcb5e813	-0.022205388
36	0x3df236ff	0.11826896
37	0xbdba5579	-0.09098334
38	0xbe1173be	-0.14204308
39	0xbdf7b568	-0.12095147
40	0xbb9087ca	-0.0044107186
41	0x3da4c441	0.08045245
42	0x3ce9ff3c	0.028564088
43	0x3e0231f2	0.12714365
44	0xbc86ff10	-0.016479045
45	0x3e835621	0.2565165
46	0xbe1a4671	-0.15065934
47	0xbde874b1	-0.11350382
48	0xbd25c84d	-0.040474225
49	0xbd4c000a	-0.049804725
50	0x3db0e28f	0.086369626
51	0x3e3da478	0.18519771
52	0x3e311dc3	0.1729651
53	0x3d452fbc	0.048141226
54	0x3dbd2197	0.092349224
55	0xbcbf4196	-0.023346703
56	0xbcc1d3c9	-0.023660557
57	0x3e5cd550	0.21565747
58	0xbd13faff	-0.03612804
59	0xbbfa0d02	-0.007630945
60	0x3d0e78ec	0.03478329
61	0xbe0ba28e	-0.13636228
62	0xbe16a4b1	-0.14711262
63	0x3e6c7d91	0.23094775
64	0x3dfcbd79	0.123408265
65	0x3e80d078	0.2515905
66	0x3cddd66b	0.027079782
67	0xbdd958dc	-0.10612652
68	0x3d9c8462	0.076424375
69	0xbe298d8b	-0.165579
70	0xbe14a8d3	-0.14517526
71	0x3e99bab6	0.30025262
72	0xbe3c21d9	-0.18372287
73	0x3e5e3ce2	0.21702912
74	0xbc01c0a0	-0.007919461
75	0x3e10c33d	0.14136977
76	0xbcab1c3b	-0.020887485
77	0x3e6d3394	0.23164207
78	0x3d998587	0.074961714
79	0xbdf05df8	-0.11736673
80	0xbc8baf53	-0.017051375
81	0xbcb9a173	-0.022659993
82	0xbe9c4a94	-0.3052565
83	0x3e250892	0.1611655
84	0x3e66b11a	0.22528496
85	0xbda7b8a5	-0.08189515
86	0x3d8cab62	0.06868626
87	0x3dac6ea5	0.08419541
88	0xbdd16bbf	-0.10225629
89	0x3e756122	0.23962834
90	0x3e6dc956	0.23221335
91	0x3d495f0c	0.04916291
92	0xbea37bc8	-0.31930375
93	0xbebd639c	-0.36990058
94	0x3e31a845	0.17349346
95	0xbf06e132	-0.5268737
96	0x3e781e8b	0.24230401
97	0x3e491a0f	0.19638847
98	0x3e12658c	0.1429655
99	0xbdb2d367	-0.08731728
100	0x3d00c6d8	0.031439632
101	0x3e769259	0.24079265
102	0x3df71432	0.12064399
103	0x3e24a0e2	0.16076997
104	0x3e23e3ed	0.16004916
105	0x3e94b2f2	0.29042774
106	0x3db6a9ed	0.089191295
107	0xbd64ce4d	-0.055860806
108	0xbd9ac761	-0.0755756
109	0x3e75be17	0.23998295
110	0x3e0eb3d4	0.13935786
111	0x3e30f91f	0.17282532
112	0x3e3982b9	0.18116273
113	0x3cd15d7f	0.025557278
114	0xbca7ea98	-0.020497605
115	0x3e9cc09f	0.30615708
116	0x3d950224	0.07275799
117	0xbdb0b5db	-0.08628436
118	0x3e4bdadb	0.19907705
119	0x3e2b777e	0.16744801
120	0x3dd83329	0.10556633
121	0x3e843a5c	0.25825775
122	0x3e0335a8	0.12813437
123	0x3e26efe9	0.16302456
124	0x3e5ba297	0.21448742
125	0x3ddc22e9	0.10748846
126	0x3dcc08fb	0.099626504
127	0x3e5c2d89	0.21501745

weight_ih_l0_reverse f4 [128, 2]
0	0xbe25452b	-0.16139667
1	0xbea818d8	-0.32831454
2	0x3dce3f11	0.10070623
3	0x3ce20109	0.027588384
4	0xbe2e5513	-0.1702464
5	0xbe3d17f2	-0.18466166
6	0x3ddfce01	0.10927964
7	0xbdb87cb3	-0.090081595
8	0xbe0aabca	-0.13542095
9	0xbe3f02f0	-0.18653464
10	0x3ea68836	0.32525796
11	0xbec07a20	-0.37593174
12	0x3d65e2da	0.056124546
13	0xbeba054f	-0.36332175
14	0x3de77ec1	0.11303473
15	0xbec2a23c	-0.380144
16	0x3eb2472f	0.34819934
17	0xbf192e7b	-0.5983655
18	0xbe820638	-0.2539537
19	0x3e99485c	0.29938018
20	0xbe3afed8	-0.18261278
21	0x3e4ffd27	0.20311414
22	0x3f19bce7	0.6005387
23	0xbee22b59	-0.44173697
24	0xbe9c0506	-0.30472583
25	0xbdcf253f	-0.10114526
26	0xbeb90012	-0.36132866
27	0xbe31cf9c	-0.17364353
28	0x3e9be84c	0.30450666
29	0xbd3f62be	-0.046725027
30	0x3e7f3ce1	0.24925567
31	0x3e8885b5	0.2666451
32	0x3d5a08e0	0.05323112
33	0xbe439242	-0.19098762
34	0xbdefe538	-0.11713642
35	0xbda0ed97	-0.07857817
36	0xbdc01090	-0.09378159
37	0x3d72b2a1	0.059252385
38	0x3e597dbc	0.2123937
39	0x3d96a201	0.073551185
40	0xbd7139cc	-0.05889301
41	0x3e8d9b99	0.27657774
42	0x3f1dfcef	0.6171407
43	0x3f3d62f8	0.7397914
44	0xbe459347	-0.19294463
45	0x3e1bbe89	0.15209402
46	0x3c9fd7b0	0.019512028
47	0xbe03c839	-0.12869348
48	0xbec489cf	-0.3838639
49	0x3ec726b9	0.3889673
50	0xbecb3e81	-0.39696124
51	0xbe5a6134	-0.21326143
52	0xbd5a721e	-0.053331487
53	0x3dac6aff	0.084188454
54	0xbe33578e	-0.17513868
55	0x3e6347ea	0.22195402
56	0x3dab28ae	0.083573684
57	0xbd48b9ac	-0.049005195
58	0xbe238410	-0.15968347
59	0x3caf5943	0.021404868
60	0x3cc483a6	0.023988556
61	0xbdcb61f1	-0.0993079
62	0x3c059a2d	0.008154434
63	0xbd2ed9fe	-0.042688362
64	0xbeba3f05	-0.36376205
65	0xbe27a3f3	-0.16371135
66	0x3e251a49	0.16123308
67	0xbda4c333	-0.08045044
68	0xbe06f26b	-0.13178413
69	0xbe0394f7	-0.12849794
70	0xbd62d7f6	-0.055381738
71	0xbe3a93de	-0.1822047
72	0xbe3d2300	-0.18470383
73	0xbe60a987	-0.2193967
74	0x3eef720e	0.46766704
75	0xbd5dbaf9	-0.05413339
76	0xbdf40c45	-0.11916403
77	0xbe75f6b1	-0.24019887
78	0x3e0aa060	0.1353774
79	0xbe21f481	-0.15815927
80	0x3e6e0163	0.23242716
81	0xbe99976f	-0.29998347
82	0xbd7e775b	-0.062125545
83	0xbd3f458d	-0.04669719
84	0x3e404163	0.18774943
85	0xbd9fb6e1	-0.07798553
86	0x3ef02a8f	0.4690747
87	0xbea64f45	-0.32482353
88	0xbe8cf5a1	-0.2753115
89	0xbdc2bf88	-0.09509188
90	0xbe5db760	-0.21651983
91	0xbe467424	-0.19380242
92	0x3e1e0c23	0.15434317
93	0xbe369cdb	-0.17833273
94	0x3e496523	0.19667487
95	0x3e71b259	0.2360319
96	0x3e0e21ef	0.13880132
97	0xbe881319	-0.2657707
98	0xbdf7a736	-0.1209244
99	0x3dd43a85	0.10362724
100	0xbdb8b9cb	-0.09019812
101	0x3d4b1391	0.049579207
102	0x3e0f4e7d	0.13994785
103	0x3d9f52db	0.07779475
104	0x3de16cb9	0.11007065
105	0x3ebfcc9a	0.37460786
106	0x3e0cd024	0.13751274
107	0x3d65660f	0.056005534
108	0xbd08f3ed	-0.03343575
109	0xbe385699	-0.18001784
110	0xbe9b23e1	-0.3030081
111	0xbe60e461	-0.2196212
112	0xbe0e8088	-0.13916218
113	0x3d751fa9	0.059844647
114	0xbe6333a8	-0.22187674
115	0xbee54afc	-0.4478377
116	0x3c960196	0.018311303
117	0xbc94b813	-0.01815418
118	0xbc7be52e	-0.015374465
119	0xbd1b75ed	-0.03795426
120	0xbdc9fa22	-0.09862162
121	0x3dae7b0d	0.08519564
122	0xbc8f04fe	-0.017458435
123	0xbca174a8	-0.019708946
124	0x3dce2df7	0.10067361
125	0xbd967a42	-0.073475376
126	0x3daf44d1	0.085580476
127	0xbe014655	-0.12624486
128	0xbea38e24	-0.31944382
129	0xbe81621f	-0.25270173
130	0x3da915f0	0.08256137
131	0x3eed7d7f	0.46384808
132	0x3e5073c1	0.20356657
133	0x3e19446d	0.14967509
134	0xbe6086e3	-0.21926455
135	0xbe6b6b82	-0.2299023
136	0x3e3ccdec	0.18437928
137	0x3e944e98	0.28966212
138	0x3eba1287	0.3634226
139	0xbdf23f65	-0.11828498
140	0xbe119ba1	-0.14219524
141	0xbedf4a0c	-0.4361118
142	0xbece359c	-0.40275276
143	0x3e96e012	0.29467827
144	0x3c9f0168	0.01940985
145	0xbed1e6ac	-0.409963
146	0xbeab8f81	-0.33507922
147	0x3f0a4ea9	0.54026276
148	0x3e9fb7a3	0.3119479
149	0xbd2dce24	-0.04243292
150	0x3efba608	0.4915011
151	0xbe4bf03c	-0.19915861
152	0x3e8520a5	0.26001468
153	0x3e23eeea	0.16009107
154	0x3ee4cacd	0.44685975
155	0x3db45a19	0.08806247
156	0x3d6692e5	0.056292433
157	0xbecf33fb	-0.40469345
158	0x3e7783fb	0.2417144
159	0x3e308849	0.17239489
160	0x3aeac3d5	0.0017911146
161	0x3e802b08	0.2503283
162	0x3d1e394b	0.038628858
163	0x3eee589b	0.46551976
164	0x3e0c5427	0.13703977
165	0xbea9556f	-0.33072993
166	0xbeaf94ec	-0.34293306
167	0x3da2856c	0.079356045
168	0xbe79d443	-0.24397378
169	0xbe21eba3	-0.15812545
170	0xbed86639	-0.4226549
171	0xbf1b995b	-0.60780877
172	0xbed9f10c	-0.42566717
173	0x3e010f57	0.12603508
174	0x3e4da84c	0.20083731
175	0x3e8d33d3	0.275786
176	0xbe02d755	-0.12777455
177	0x3ef47fbc	0.47753704
178	0x3e8f5251	0.2799249
179	0x3e8d1996	0.27558583
180	0xbe8e863f	-0.27836797
181	0xbe48aa68	-0.19596255
182	0xbd7e8d51	-0.06214649
183	0xbeb40146	-0.35157222
184	0xbed43314	-0.4144522
185	0x3e8fcb75	0.28084913
186	0x3ea918db	0.33026776
187	0x3dbfac78	0.09359068
188	0x3e3cc07d	0.18432803
189	0xbea5620d	-0.3230137
190	0x3ec3184b	0.38104472
191	0xbe52430c	-0.20533389
192	0x3c927532	0.017878149
193	0xbda63e70	-0.08117378
194	0x3e2fd4c3	0.17171006
195	0xbd8aa384	-0.067694694
196	0xbd63b6e9	-0.05559436
197	0xbddbd063	-0.10733106
198	0xbe92ed87	-0.28696844
199	0xbe7570ee	-0.2396886
200	0xbe484b29	-0.19559921
201	0x3cc6bbb7	0.024259431
202	0x3ec80d73	0.3907276
203	0xbe2e8759	-0.17043819
204	0xbebd9953	-0.3703104
205	0xbf0f8e95	-0.5607694
206	0x3e372918	0.1788677
207	0xbeb4f8d8	-0.35346103
208	0x3cf16b11	0.029469999
209	0xbf1352ed	-0.5754841
210	0xbdd9a315	-0.106268086
211	0xbc43113c	-0.011905964
212	0x3c72f389	0.014828571
213	0xbd87e73b	-0.066359006
214	0x3f042cf9	0.5163112
215	0xbed0e732	-0.40801388
216	0xbdef180a	-0.11674507
217	0xbe9515a9	-0.29118088
218	0xbea8c5d1	-0.32963422
219	0x3d993ec4	0.07482675
220	0x3ef22d7a	0.4730032
221	0xbe43e74c	-0.19131202
222	0x3ddd4905	0.10804943
223	0x3e06fddb	0.13182776
224	0x3ec12c04	0.37728894
225	0xbdf964dc	-0.121774405
226	0xbd38f95f	-0.045159694
227	0xbe0fa20f	-0.14026664
228	0x3d07e2dd	0.033175338
229	0xbc9d6d17	-0.019217057
230	0x3d79ccd0	0.06098634
231	0x3e56ffdb	0.20996039
232	0x3d91b9c2	0.071155086
233	0x3d3d01ca	0.046144284
234	0x3f0ba9d9	0.5455604
235	0x3f648fd7	0.8928198
236	0xbe0079dd	-0.12546487
237	0xbdff9170	-0.12478912
238	0xbe638b92	-0.2222121
239	0xbcdd9ade	-0.027051385
240	0xbec69582	-0.3878594
241	0x3e90bff6	0.28271455
242	0xbcb1ac06	-0.021688472
243	0xbea74e70	-0.3267703
244	0xbec33bd4	-0.38131583
245	0x3dc79eae	0.097470626
246	0x3cd74cd4	0.026281752
247	0x3e8da1de	0.27662557
248	0x3eb14218	0.34620738
249	0xbe2f6248	-0.17127335
250	0xbdf66712	-0.12031378
251	0xbe69bcc6	-0.22825918
252	0xbb8cfab0	-0.004302345
253	0xbd220b29	-0.039561424
254	0x3c263b23	0.010145935
255	0xbd1901b5	-0.037355144
